chemstruct_backend/models/gnn_bond_predictor.pth (torch, 31620 bytes, 7 tensors)

conv1.bias f4 [64]
0.040268198 0.0 0.058550995 0.037934028 0.06378858 0.12505785 0.055270895 0.061568372
0.032158937 0.0 0.0 -0.006005499 0.0 0.054775722 0.0 0.0
0.057876438 0.0 0.0 0.03724872 0.0 -0.03261336 -0.064918004 0.016355207
0.061640196 0.0 0.062429216 -0.029049288 0.0 0.06370995 0.054193474 0.067348294
0.0 0.0 0.016129714 0.0 -0.0075788973 0.047275808 0.043448392 0.10109017
0.0 0.03790402 0.0654943 0.0950836 0.0 0.0 0.0 0.0
0.17745219 0.0 0.0 0.06551161 0.0 0.0 0.03348763 0.056219842
0.06439361 0.049721554 0.0 0.15024273 -0.025838796 -0.23223515 0.036947448 0.0
00000000: 44f0 243d 0000 0000 2bd3 6f3d b660 1b3d
00000010: 96a3 823d 2a0f 003e bc63 623d 1e2f 7c3d
00000020: 17b9 033d 0000 0000 0000 0000 c7c9 c4bb
00000030: 0000 0000 825c 603d 0000 0000 0000 0000
00000040: d80f 6d3d 0000 0000 0000 0000 1d92 183d
00000050: 0000 0000 9695 05bd bbf3 84bd 5bfb 853c
00000060: 6e7a 7c3d 0000 0000 c7b5 7f3d c6f8 edbc
00000070: 0000 0000 5d7a 823d faf9 5d3d e7ed 893d
00000080: 0000 0000 0000 0000 7622 843c 0000 0000
00000090: 6658 f8bb 47a4 413d f1f6 313d 5d08 cf3d
000000a0: 0000 0000 3f41 1b3d e021 863d 31bb c23d
000000b0: 0000 0000 0000 0000 0000 0000 0000 0000
000000c0: 07b6 353e 0000 0000 0000 0000 f32a 863d
000000d0: 0000 0000 0000 0000 532a 093d c746 663d
000000e0: cce0 833d d4a8 4b3d 0000 0000 3bd9 193e
000000f0: e2ab d3bc 0dcf 6dbe 3556 173d 0000 0000

conv1.lin.weight f4 [64, 11]
-0.07736667 0.14125958 -0.018590761 -0.12410705 0.12943381 0.13099398 -0.08401995 0.26048255
-0.15880354 0.040727783 0.38187012 -0.18245982 -0.13186364 0.08258561 -0.16055249 -0.15033242
-0.11285399 -0.23917697 -0.01374429 -0.26378635 -0.09984808 -0.13424446 0.13162205 0.033832606
-0.037512764 -0.017094545 0.49409452 0.24332106 0.12043237 -0.2645582 0.27049226 -0.274505
0.25215685 -0.13277307 -0.20299062 -0.15182412 0.18673858 0.61037034 0.06241386 0.21829163
0.2040035 -0.22558542 -0.20562063 0.26542753 0.19068846 0.13281879 0.07989291 -0.21558745
0.07830373 0.17821124 0.24476682 0.24195576 -0.27802688 0.18567637 0.12631178 0.07137216
-0.17537108 -0.22048578 0.16331068 0.7189311 -0.022504544 0.12335088 0.022465046 -0.11104491
0.15902722 0.49982682 0.06585674 -0.07856333 -0.49633652 -0.08539716 0.45987162 0.0020068295
-0.042201474 0.016804421 -0.11757512 0.23835026 0.109186694 -0.1650532 0.11013193 0.17548999
0.10574037 0.16525415 0.22909571 -0.22372665 0.011488051 0.25662062 -0.12560679 0.018691175
0.2875065 -0.007913654 -0.108893454 0.065652974 0.42807993 0.24625048 0.14974314 -0.19939204
0.12989852 0.19129053 0.36010763 -0.05543181 -0.13523015 0.05344005 -0.27565938 -0.021049317
-0.09261106 -0.03456116 -0.22451968 0.0070476276 0.13345571 0.044320516 -0.10306277 -0.24687436
-0.1873621 0.0082055535 0.18758862 -0.15979843 0.123685695 0.2722342 -0.1328232 0.13938446
0.004362536 0.264611 0.05829532 0.2218732 0.28033346 -0.19807145 -0.14930162 -0.1884736
-0.17465405 -0.19022822 -0.06911932 0.19382945 0.21783033 -0.081147894 0.25917292 -0.14261696
0.15934466 -0.07523985 0.15849283 0.17093799 0.016234865 0.2108494 -0.25160044 0.012351552
-0.22097321 -0.32221064 0.067800194 -0.04349453 0.25735158 -0.24554685 0.11038095 -0.14652336
0.1443714 0.021959819 0.19319732 -0.23780653 -0.20998798 -0.27911818 -0.06114729 -0.25327495
-0.21969855 -0.080614686 -0.044306625 0.08037951 -0.07311936 0.14698073 0.25721118 -0.2724407
-0.06111796 0.11987138 -0.06880389 -0.06960579 -0.015935488 -0.26776847 -0.057695396 -0.07015188
-0.1328016 0.13080932 -0.23015812 0.094113916 -0.334348 0.05642154 0.062363043 -0.15613881
-0.08681462 -0.26956883 -0.09754608 0.24972336 0.07752933 0.09276549 0.12026068 0.033521682
-0.08165308 0.08876815 0.27537176 -0.14913231 -0.26935643 -0.16986728 -0.064273 -0.08782615
-0.23213734 -0.27179825 -0.16758394 -0.25211406 0.09368443 0.25982845 -0.2356832 -0.1159968
-0.18538973 0.3014359 0.2025598 -0.3836472 0.3927207 -0.22845292 -0.047806364 0.24990432
0.15212993 -0.085573345 -0.22313945 0.37246975 0.27533245 -0.18133639 0.037768804 -0.130372
-0.052277606 -0.24326032 0.14817885 -0.2288684 0.15976822 -0.003917769 0.080131516 -0.2621686
0.19310038 0.18626621 -0.082748055 0.07066837 -0.0917658 -0.050329003 0.05840336 0.21920387
0.22000916 0.17555188 -0.34681696 -0.02848902 0.2599241 -0.31321082 -0.5133729 0.10674069
-0.16172674 -0.17876819 -0.22062787 0.17830886 0.06654083 -0.044572376 -0.1124719 -0.13362463
00000000: 6b72 9ebd 5aa6 103e a74b 98bc d62b febd
00000010: 4c8a 043e 4923 063e a712 acbd f85d 853e
00000020: 659d 22be 2dd2 263d 7b84 c33e bfd6 3abe
00000030: 4307 07be a522 a93d df67 24be bef0 19be
00000040: fe1f e7bd cfea 74be bb2f 61bc 010f 87be
00000050: 267d ccbd 6177 09be eec7 063e 0f94 0a3d
00000060: fca6 19bd dc09 8cbc f5f9 fc3e 2829 793e
00000070: 3fa5 f63d 2c74 87be f67d 8a3e eb8b 8cbe
00000080: b41a 813e aaf5 07be c6dc 4fbe c877 1bbe
00000090: 6638 3f3e 3b41 1c3f ada5 7f3d d787 5f3e
000000a0: 4be6 503e ddff 66be 378e 52be 1ee6 873e
000000b0: d643 433e a601 083e e59e a33d f5c2 5cbe
000000c0: b55d a03d 027d 363e 27a4 7a3e 40c3 773e
000000d0: 8a59 8ebe f221 3e3e e057 013e 912b 923d
000000e0: 7a94 33be 06c7 61be ea3a 273e de0b 383f
000000f0: 735b b8bc 639f fc3d 9e08 b83c 846b e3bd
00000100: 08d8 223e 4de9 ff3e e6df 863d d0e5 a0bd
00000110: d21f febe b5e4 aebd 4b74 eb3e 0385 033b
00000120: 74db 2cbd 6da9 893c 39cb f0bd 1712 743e
00000130: 469d df3d b503 29be d98c e13d a6b3 333e
00000140: 688e d83d 6238 293e 1198 6a3e 9918 65be
00000150: 6138 3c3c c763 833e 119f 00be 3c1e 993c
00000160: 0d34 933e 45a8 01bc 8803 dfbd 1175 863d
00000170: 4b2d db3e 1629 7c3e 4456 193e 6d2d 4cbe
00000180: 1e04 053e aae1 433e 0760 b83e 770c 63bd
00000190: c679 0abe f4e3 5a3d 3a23 8dbe 9e6f acbc
000001a0: deaa bdbd 0190 0dbd 7de8 65be c9ef e63b
000001b0: 9da8 083e 6e89 353d 9312 d3bd a2cc 7cbe
000001c0: dadb 3fbe 9670 063c 3b17 403e 33a2 23be
000001d0: ed4e fd3d 4862 8b3e ce02 08be cdba 0e3e
000001e0: 9bf3 8e3b 187b 873e 13c7 6e3d ba32 633e
000001f0: de87 8f3e 3ed3 4abe 86e2 18be 39ff 40be
00000200: 83d8 32be 30cb 42be 6e8e 8dbd 3a7b 463e
00000210: ea0e 5f3e de30 a6bd 50b2 843e 2e0a 12be
00000220: 3f2b 233e 5a17 9abd f24b 223e 5e0a 2f3e
00000230: fbfe 843c e8e8 573e c6d1 80be 2a5e 4a3c
00000240: cd46 62be cbf8 a4be d4da 8a3d 5227 32bd
00000250: 96c3 833e a270 7bbe 680f e23d 380a 16be
00000260: 19d6 133e 14e5 b33c 85d5 453e 8e83 73be
00000270: 1707 57be 94e8 8ebe 9575 7abd 41ad 81be
00000280: a8f8 60be 5019 a5bd dd7a 35bd 039e a43d
00000290: 9abf 95bd 1e82 163e 2fb1 833e 597d 8bbe
000002a0: d356 7abd 207f f53d 0ee9 8cbd 7b8d 8ebd
000002b0: 248b 82bc f318 89be 0252 6cbd caab 8fbd
000002c0: 25fd 07be e1f2 053e 92ae 6bbe ccbe c03d
000002d0: a92f abbe 461a 673d 6470 7f3d dae2 1fbe
000002e0: ddcb b1bd ed04 8abe 3dc6 c7bd 7bb7 7f3e
000002f0: b3c7 9e3d d5fb bd3d 3b4b f63d 084e 093d
00000300: bb39 a7bd 13cc b53d 87fd 8c3e 24b6 18be
00000310: 16e9 89be b0f1 2dbe 90a1 83bd 32de b3bd
00000320: 69b5 6dbe 2429 8bbe 209b 2bbe 1815 81be
00000330: 9fdd bf3d 3c08 853e f056 71be bb8f edbd
00000340: ced6 3dbe ce55 9a3e d66b 4f3e 686d c4be
00000350: b012 c93e 90ef 69be 9bd0 43bd ebe6 7f3e
00000360: f3c7 1b3e 1441 afbd ab7e 64be 5bb4 be3e
00000370: 60f8 8c3e 3fb0 39be 76b3 1a3d 3d80 05be
00000380: 0b21 56bd 3c19 79be 32bc 173e 7a5c 6abe
00000390: 489a 233e a160 80bb fe1b a43d f63a 86be
000003a0: 1bbc 453e 92bc 3e3e d077 a9bd 94ba 903d
000003b0: b5ef bbbd c925 4ebd 5d38 6f3d fb76 603e
000003c0: 154a 613e dfc3 333e fe91 b1be ce61 e9bc
000003d0: c614 853e 2b5d a0be 686c 03bf dd9a da3d
000003e0: b29b 25be 020f 37be 46ec 61be 9996 363e
000003f0: 8f46 883d 8691 36bd ab57 e6bd e5d4 08be

conv2.bias f4 [64]
0.06881154 0.05282187 0.07050218 0.068193145 -0.009265035 0.069427505 0.0 0.071247846
0.07055215 0.05421368 0.06794796 0.07023316 0.0 0.07124356 0.0032400554 0.052908987
0.07168199 0.075593024 0.0 0.0124038905 0.06619735 0.0 -0.01033843 0.069070116
0.0 0.032561883 0.0 0.060354102 -0.009322378 0.07186889 0.0 0.0
0.041089404 -0.022445723 0.056734256 0.0 0.0 0.0 -0.01339948 0.06820755
0.0 0.0 0.07238432 0.0 0.04134544 0.07235217 0.09616369 0.07254308
0.069935285 0.06661313 -0.0116831055 0.0 0.061479103 0.029435879 0.07079024 -0.0147966165
0.0 0.039407793 0.0 0.052720916 0.028620232 0.07148607 0.042293116 0.0
00000000: 11ed 8c3d bf5b 583d 7263 903d d9a8 8b3d
00000010: 60cc 17bc 0230 8e3d 0000 0000 64ea 913d
00000020: a57d 903d 2a0f 5e3d 4d28 8b3d 67d6 8f3d
00000030: 0000 0000 25e8 913d 1c57 543b 18b7 583d
00000040: 02ce 923d 84d0 9a3d 0000 0000 b039 4b3c
00000050: 7a92 873d 0000 0000 8562 29bc a274 8d3d
00000060: 0000 0000 9c5f 053d 0000 0000 dd35 773d
00000070: e3bc 18bc ff2f 933d 0000 0000 0000 0000
00000080: 5d4d 283d 18e0 b7bc 2e62 683d 0000 0000
00000090: 0000 0000 0000 0000 7e89 5bbc 66b0 8b3d
000000a0: 0000 0000 0000 0000 3b3e 943d 0000 0000
000000b0: d659 293d 602d 943d 78f1 c43d 7791 943d
000000c0: 3b3a 8f3d 776c 883d 7f6a 3fbc 0000 0000
000000d0: 83d1 7b3d 8323 f13c 79fa 903d 826d 72bc
000000e0: 0000 0000 116a 213d 0000 0000 e3f1 573d
000000f0: fa74 ea3c 4a67 923d 8c3b 2d3d 0000 0000

conv2.lin.weight f4 [64, 64]
0.05563896 0.2004184 0.25102302 -0.07910163 0.009549548 0.32494825 0.2455983 0.1317828
0.040671453 -0.093402326 0.06645982 -0.104966715 0.07323893 0.21176721 0.18388122 -0.08539152
-0.075625904 -0.076790616 0.1829159 -0.068509676 -0.03453315 0.024707954 -0.13243945 0.09148791
0.20660122 -0.046345726 0.17723885 -0.0110254185 0.21577452 -0.15752628 0.20227976 -0.55093277
-0.0066961893 -0.197729 -0.11828956 -0.20703116 -0.05247943 0.18529646 0.053183578 0.31056422
0.058656424 0.016445793 -0.047838975 0.3124514 -0.18213046 -0.009105125 -0.21471359 -0.19313501
0.36305782 0.1646097 0.0075655584 0.15134333 0.10044085 -0.10766518 -0.17763312 -0.0635094
0.1941741 -0.066216744 -0.11637064 0.22278017 -0.18522504 0.21242069 0.10541072 0.03718684
-0.13422604 -0.17350301 -0.1092967 -0.0046949782 0.04249162 0.19844228 0.027410561 0.0074591544
-0.009581813 -0.04145174 0.020942451 -0.024253689 -0.06766223 0.10278131 -0.14131412 -0.013531827
-0.19068311 0.09311085 -0.10654084 0.025180679 0.18758486 -0.20775495 -0.10365998 0.04089512
0.20936893 0.17155245 -0.001730718 0.53599924 0.07915482 -0.08309438 -0.014440721 -0.8969393
0.06301496 -0.053459074 0.031052686 -0.085430704 0.123260245 0.13632458 0.23836544 0.27626517
0.0024293256 0.13632418 -0.110175975 0.18964238 0.1348634 0.154175 -0.07924113 0.00045300953
0.47281882 0.10184437 -0.11169849 0.10882571 0.16310534 -0.117313646 0.14234738 0.17426687
-0.037478995 0.11575286 -0.16149713 0.43833882 0.17252153 0.46249002 -0.093572594 0.20674187
-0.046758242 -0.07123908 0.15953988 -0.08623413 0.0779904 0.08488842 0.1964418 0.0352501
0.033098813 -0.14753214 0.20047203 -0.16737287 0.043537978 0.24192813 0.07139017 0.18521085
-0.11749491 0.04054776 -0.05100724 0.13919052 0.14430222 0.044844802 -0.0516641 0.13549136
0.0026286682 -0.16978398 0.20351894 0.2745006 -0.076998435 0.14583604 -0.10006837 -0.68598485
-0.066439144 0.10998311 0.076303415 -0.14487009 -0.02835204 -0.07648107 0.21093261 0.049208865
0.10675052 -0.13843387 0.2275686 0.15720011 0.20144053 -0.19644715 0.17061451 0.04631457
0.515041 0.02685452 0.057231504 0.053634703 0.05887364 0.09441834 0.18300332 0.16351272
0.105295345 -0.029029628 0.09281526 0.1742616 -0.19772187 0.56749314 0.10832797 -0.038901523
-0.037519094 -0.009390915 0.044916302 0.23029059 0.011910901 0.13621892 0.046946216 0.16776928
0.23763424 -0.123424396 -0.108807534 -0.20690124 -0.08750058 -0.03783321 0.19976425 -0.17137377
0.04608949 -0.17957708 -0.096363194 0.21580905 0.21621767 0.21457922 0.20580956 -0.0657194
0.18047313 -0.12769382 0.30166394 0.21563907 -0.15261538 0.035225455 0.11393233 -0.5280405
0.1924345 -0.18280207 0.24000652 0.02746662 0.20001459 0.18002182 -0.13622904 0.3603229
-0.12083676 0.12361334 0.2577132 -0.0071529257 0.17524663 0.15369022 0.17038192 0.20007698
0.16800354 -0.17459546 -0.02667984 0.18933569 -0.0939746 -0.05621334 0.06420667 0.21622345
-0.13934128 -0.040757705 -0.043343298 0.48822406 -0.18166651 0.5802416 0.05781535 0.18122557
00000000: aee5 633d 7b3a 4d3e 1786 803e 0900 a2bd
00000010: b575 1c3c 9e5f a63e 1f7e 7b3e 12f2 063e
00000020: 1c97 263d b849 bfbd 161c 883d caf8 d6bd
00000030: 4bfe 953d 81d9 583e 5c4b 3c3e c0e1 aebd
00000040: c1e1 9abd 6644 9dbd 4e4e 3b3e cd4e 8cbd
00000050: a272 0dbd 5668 ca3c 359e 07be 035e bb3d
00000060: 458f 533e 04d5 3dbd 1a7e 353e f5a3 34bc
00000070: fff3 5c3e 924e 21be 6d22 4f3e ee09 0dbf
00000080: b56b dbbb 7979 4abe cc41 f2bd faff 53be
00000090: acf4 56bd 5bbe 3d3e 06d7 593d 4602 9f3e
000000a0: b841 703d 54b9 863c cdf2 43bd a1f9 9f3e
000000b0: 6880 3abe aa2d 15bc e1dd 5bbe 2fc5 45be
000000c0: b7e2 b93e 728f 283e 81e8 f73b bff9 1a3e
000000d0: efb3 cd3d 907f dcbd 75e5 35be 3711 82bd
000000e0: 93d5 463e a59c 87bd bb53 eebd 7c20 643e
000000f0: a2ab 3dbe cf84 593e 93e1 d73d 3a51 183d
00000100: 8d72 09be c6aa 31be f3d6 dfbd 55d8 99bb
00000110: b10b 2e3d 7434 4b3e 1d8c e03c ec6b f43b
00000120: 09fd 1cbc 4dc9 29bd 818f ab3c acaf c6bc
00000130: 7f92 8abd 027f d23d a6b4 10be 99b4 5dbc
00000140: 6f42 43be e7b0 be3d 1532 dabd b647 ce3c
00000150: 3f16 403e b7bd 54be af4b d4bd a481 273d
00000160: cf64 563e 72ab 2f3e 42d9 e2ba 3f37 093f
00000170: ec1b a23d 632d aabd c698 6cbc d09d 65bf
00000180: fd0d 813d e7f7 5abd 3462 fe3c 4bf6 aebd
00000190: de6f fc3d ac98 0b3e 1216 743e a172 8d3e
000001a0: 5235 1f3b 9198 0b3e f1a3 e1bd 9d31 423e
000001b0: a219 0a3e 0de0 1d3e 2c49 a2bd e981 ed39
000001c0: 4f15 f23e c893 d03d 2ec2 e4bd 04e0 de3d
000001d0: 1605 273e 2342 f0bd 83c3 113e 0473 323e
000001e0: 9383 19bd d60f ed3d 815f 25be f26d e03e
000001f0: 7ca9 303e 7ecb ec3e fda2 bfbd 24b4 533e
00000200: 9285 3fbd cbe5 91bd 6c5e 233e 859b b0bd
00000210: 6eb9 9f3d fbd9 ad3d 0a28 493e 6962 103d
00000220: 9f92 073d aa12 17be 8a48 4d3e cb63 2bbe
00000230: e154 323d 02bc 773e 0235 923d eaa7 3d3e
00000240: 2ca1 f0bd 6815 263d f8ec 50bd f687 0e3e
00000250: f6c3 133e 2faf 373d bc9d 53bd 3fbe 0a3e
00000260: bc45 2c3b dadb 2dbe 4567 503e 588b 8c3e
00000270: 5bb1 9dbd 0b56 153e a5f0 ccbd b49c 2fbf
00000280: 3f11 88bd d33e e13d f744 9c3d d358 14be
00000290: 8a42 e8bc 1ba2 9cbd b8fe 573e 3c8f 493d
000002a0: 04a0 da3d 9cc1 0dbe be07 693e 11f9 203e
000002b0: 6d46 4e3e 7129 49be 92b5 2e3e 59b4 3d3d
000002c0: bad9 033f 03fe db3c 956b 6a3d 10b0 5b3d
000002d0: 7c25 713d 675e c13d 3965 3b3e e16f 273e
000002e0: 16a5 d73d 8bcf edbc ed15 be3d a271 323e
000002f0: 9a77 4abe 3b47 113f 0edb dd3d 3457 1fbd
00000300: 9fad 19bd 5adc 19bc 28fa 373d 4cd1 6b3e
00000310: f125 433c f97c 0b3e ad4a 403d b6cb 2b3e
00000320: 6456 733e eec5 fcbd 7cd6 debd ebdd 53be
00000330: 8133 b3bd fff6 1abd 008f 4c3e 9b7c 2fbe
00000340: 55c8 3c3d 0ee3 37be 115a c5bd 0cfd 5c3e
00000350: 2a68 5d3e a8ba 5b3e bebf 523e e597 86bd
00000360: f3cd 383e 2bc2 02be b273 9a3e 7dd0 5c3e
00000370: 3547 1cbe 9148 103d 5a55 e93d aa2d 07bf
00000380: 8d0d 453e 7730 3bbe 45c4 753e ad01 e13c
00000390: a0d0 4c3e a457 383e a07f 0bbe 3e7c b83e
000003a0: 4379 f7bd fe28 fd3d fcf2 833e 1763 eabb
000003b0: da73 333e f860 1d3e 9978 2e3e fbe0 4c3e
000003c0: 1f09 2c3e 27c9 32be ae8f dabc 37e1 413e
000003d0: c175 c0bd f63f 66bd c97e 833d ae69 5d3e
000003e0: 7baf 0ebe 8df1 26bd be88 31bd 81f8 f93e
000003f0: c906 3abe b78a 143f cacf 6c3d 3293 393e

lin.0.weight f4 [32, 64]
-0.018958677 0.15260126 -0.033685762 0.023852758 0.12361225 0.069782 -0.025311396 0.09240642
-0.025588794 0.16736452 0.09120239 0.14738022 0.036779508 0.2077607 0.17854603 -0.0036375443
-0.028905274 0.17011838 0.07784121 -0.15082075 0.19205755 0.021384925 0.049876448 0.118491195
0.024584189 0.03239005 -0.09422138 0.14252892 -0.06426602 0.021000067 -0.115352854 -0.07167019
0.20562653 -0.003043777 -0.008021842 -0.015245423 -0.11893849 -0.102128565 -0.48822847 0.12832765
0.10127033 -0.11034173 0.16796947 0.12303369 0.1259421 0.08588836 0.2638816 -0.0034218244
0.146443 0.13151237 0.08923203 -0.090470865 0.010900524 0.23900318 0.12425498 -0.0019136542
0.057623833 -0.012677691 -0.1127979 0.05673043 0.2585475 0.19165814 -0.06473392 -0.09682423
-0.108186945 -0.058984667 -0.03837453 -0.122133404 0.01924333 -0.0921385 0.04966986 -0.086055726
0.05272454 0.045761883 -0.05608885 -0.052183807 -0.039497033 -0.07277085 0.021739274 0.0022049248
0.08102438 -0.036052644 -0.11612269 -0.053071275 0.04472421 -0.092533335 -0.08450401 0.05609201
-0.028277561 0.06376472 -0.062372267 -0.10631183 0.11926736 0.06446828 0.019864604 0.12172632
-0.02624917 -0.0004273653 -0.08473334 -0.079508945 -0.038498133 -0.11369254 -0.07725978 0.0821159
-0.019299343 -0.055578798 0.08883944 -0.025919586 0.06270364 -0.09344612 -0.11746566 -0.064620346
-0.035971567 0.113614395 0.10111804 -0.06701724 -0.063039094 0.06433776 -0.04508108 -0.07929674
-0.11229034 -0.11211726 -0.115965456 0.06613426 -0.09628779 -0.08472313 0.08406137 0.05092323
-0.09610927 0.08762221 -0.11161806 0.050996676 -0.06053783 -0.10490146 -0.08265473 -0.04439272
0.120852515 -0.007886678 -0.052054733 -0.09964265 0.019219443 -0.055222273 0.040351406 -0.12402402
0.028784096 -0.059909716 0.0139179975 0.045526445 -0.07987426 0.014781237 -0.08855882 0.0018684715
0.08227414 -0.092933595 0.060176477 -0.10664864 -0.017749488 -0.074891016 -0.117706016 0.08866812
0.0067287683 -0.028208792 0.02645041 -0.09274414 0.019917876 0.10928771 -0.0816247 0.0662702
0.09696534 -0.09858516 0.107010484 -0.021559983 -0.10882886 0.007575661 -0.0349472 0.05568087
-0.10247232 0.0042857826 -0.055666387 -0.02490969 -0.035065934 -0.11927582 -0.048768684 0.033202916
-0.08255674 0.0039036572 -0.005705282 -0.05779846 -0.062011063 0.02138932 0.08655189 -0.08907646
0.18438002 0.048751973 0.1931661 0.08882358 0.062261105 0.10167092 0.080562815 0.15022448
0.19671518 -0.013694674 0.0025931254 0.040443875 0.030277357 0.1372366 0.0071320655 0.17759734
0.053515296 0.1394034 -0.11145371 -0.2047757 0.131868 -0.110921636 0.020573823 0.06310925
-0.0667464 -0.034028716 -0.103120714 0.14489695 -0.010275521 0.013250527 -0.0031200051 -0.03463328
-0.03040809 0.044988256 0.026118426 0.111114085 0.063399345 -0.085876435 -0.2891118 0.14648727
0.036406413 0.11917955 0.17237987 -0.07234202 0.28520992 0.09391585 0.28889105 0.13335401
0.04487373 0.17373917 -0.061756626 0.0724802 0.011609971 0.07893506 0.09160167 0.035933618
0.10650042 0.088320434 -0.10772319 0.00019071987 0.039751716 0.0038291663 -0.045893777 -0.06865436
00000000: 3a4f 9bbc 8143 1c3e 15fa 09bd dc66 c33c
00000010: 6b28 fd3d dde9 8e3d d859 cfbc 943f bd3d
00000020: 979f d1bc 9b61 2b3e 52c8 ba3d d7ea 163e
00000030: 1ca6 163d 39bf 543e c5d4 363e de63 6ebb
00000040: c1ca ecbc 8333 2e3e 366b 9f3d c170 1abe
00000050: bcaa 443e 702f af3c 3f4b 4c3d 83ab f23d
00000060: c864 c93c 6eab 043d 24f7 c0bd 1af3 113e
00000070: e79d 83bd 5508 ac3c 1e3e ecbd d2c7 92bd
00000080: c38f 523e 1b7a 47bb 0b6e 03bc f0c7 79bc
00000090: 0696 f3bd c828 d1bd 15f9 f9be 5368 033e
000000a0: d266 cf3d d8fa e1bd 3000 2c3e 16f9 fb3d
000000b0: f7f6 003e 3de6 af3d 7d1b 873e b040 60bb
000000c0: 27f5 153e 2eab 063e 48bf b63d ca48 b9bd
000000d0: 1d98 323c 40bd 743e 6579 fe3d 94d3 faba
000000e0: f806 6c3d 17b6 4fbc 9602 e7bd 2b5e 683d
000000f0: 5760 843e 0842 443e 3893 84bd c84b c6bd
00000100: 1e91 ddbd e899 71bd 9c2e 1dbd 1421 fabd
00000110: 30a4 9d3c 1cb3 bcbd a072 4b3d fc3d b0bd
00000120: b0f5 573d d070 3b3d 6cbd 65bd b0be 55bd
00000130: a4c7 21bd e208 95bd 9016 b23c 8080 103b
00000140: 1cf0 a53d f0ab 13bd bcd1 edbd 4461 59bd
00000150: bc30 373d 1e82 bdbd 7010 adbd bcc0 653d
00000160: 58a6 e7bc 1497 823d 107a 7fbd 04ba d9bd
00000170: 7242 f43d f207 843d 18bb a23c a64b f93d
00000180: 8008 d7bc 0010 e0b9 ac88 adbd 96d5 a2bd
00000190: 38b0 1dbd a2d7 e8bd 603a 9ebd 622c a83d
000001a0: a819 9ebc 98a6 63bd 74f1 b53d 5055 d4bc
000001b0: c46a 803d ae60 bfbd d691 f0bd ac57 84bd
000001c0: ec56 13bd aaae e83d fa16 cf3d 5640 89bd
000001d0: a41a 81bd 84c3 833d f0a6 38bd 5466 a2bd
000001e0: 7af8 e5bd bc9d e5bd 4c7f edbd 6671 873d
000001f0: 8832 c5bd 5283 adbd 5e28 ac3d e094 503d
00000200: f0d4 c4bd 4673 b33d 0298 e4bd e4e1 503d
00000210: 84f6 77bd 94d6 d6bd e246 a9bd 24d5 35bd
00000220: 8681 f73d 2037 01bc 5837 55bd 7211 ccbd
00000230: 1872 9d3c c030 62bd 8447 253d 4e00 febd
00000240: a0cc eb3c e463 75bd 5008 643c f079 3a3d
00000250: 1e95 a3bd 002d 723c 545e b5bd 80e7 f43a
00000260: 587f a83d f853 bebd 9c7b 763d 9a6a dabd
00000270: 6067 91bc 7660 99bd da0f f1bd a297 b53d
00000280: 007d dc3b 2016 e7bc 88ae d83c a4f0 bdbd
00000290: d02a a33c 3cd2 df3d da2a a7bd acb8 873d
000002a0: c495 c63d 04e7 c9bd 5028 db3d 909e b0bc
000002b0: aae1 debd 403d f83b cc24 0fbd a011 643d
000002c0: 02dd d1bd c06f 8c3b 7002 64bd 680f ccbc
000002d0: 4ca1 0fbd e246 f4bd acc1 47bd c8ff 073d
000002e0: 8213 a9bd 80d4 7f3b 60f3 babb 14be 6cbd
000002f0: 50ff 7dbd a838 af3c 1e42 b13d b86d b6bd
00000300: 1ece 3c3e 26b0 473d 56cd 453e 23e9 b53d
00000310: 8005 7f3d d838 d03d 1efe a43d 72d4 193e
00000320: b46f 493e a05f 60bc 6df1 293b 7aa8 253d
00000330: 3808 f83c c087 0c3e 1ab4 e93b 14dc 353e
00000340: db32 5b3d c4bf 0e3e d841 e4bd b9b0 51be
00000350: 6808 073e e22a e3bd 6f8a a83c 6c3f 813d
00000360: 56b2 88bd b261 0bbd f430 d3bd de5f 143e
00000370: a95a 28bc bd18 593c 0079 4cbb a0db 0dbd
00000380: 631a f9bc 9b45 383d 4ff6 d53c c88f e33d
00000390: 84d7 813d fcdf afbd 7606 94be c200 163e
000003a0: e41e 153d 6814 f43d 5984 303e 0e28 94bd
000003b0: 0907 923e f456 c03d 87e9 933e f48d 083e
000003c0: 84cd 373d aee8 313e 84f4 7cbd 8070 943d
000003d0: bf37 3e3c b4a8 a13d a899 bb3d 212f 133d
000003e0: e41c da3d 58e1 b43d fa9d dcbd fafb 4739
000003f0: b2d2 223d c0f2 7a3b 1dfb 3bbd a89a 8cbd

lin.0.bias f4 [32]
0.028004585 -0.09306005 0.024377555 0.097156234 0.12522897 -0.060859554 -0.12342906 0.013651058
0.10036455 -0.114065506 0.01941604 0.07433202 0.09900762 0.029832914 0.12420259 0.024341002
0.06061905 -0.099428594 0.031798318 0.07365899 0.0072517823 -0.0037500982 0.020458814 -0.08563404
0.10361986 0.052748628 0.0006118417 -0.09178549 0.16649562 0.1534896 -0.10502525 0.026929677
00000000: df69 e53c 4496 bebd 70b3 c73c d9f9 c63d
00000010: 063c 003e de47 79bd 60c8 fcbd b0a8 5f3c
00000020: ee8b cd3d 2d9b e9bd 630e 9f3c 633b 983d
00000030: 82c4 ca3d 2864 f43c ed5d fe3d c866 c73c
00000040: ae4b 783d 38a1 cbbd f43e 023d 86da 963d
00000050: 5ca0 ed3b 35c4 75bb 3e99 a73c e660 afbd
00000060: a636 d43d f20e 583d 0064 203a 08fa bbbd
00000070: d47d 2a3e 612c 1d3e 7a17 d7bd a09b dc3c

lin.2.weight f4 [1, 32]
0.12082776 0.093768224 -0.119575225 0.111787975 0.19928145 -0.06862975 0.116110474 -0.06589537
-0.045615412 -0.079876296 -0.016812006 -0.074149005 0.1290891 0.016470209 0.20416468 -0.04180409
-0.06772135 -0.1263389 -0.024409715 0.08032251 0.17036669 -0.0967288 0.0009329445 -0.10923972
0.038209006 -0.07327842 -0.03485302 -0.046145324 0.1804504 0.12793624 -0.061488852 -0.090649575
00000000: 8b74 f73d 8e09 c03d dbe3 f4bd 18f1 e43d
00000010: 7010 4c3e c18d 8cbd 54cb ed3d 27f4 86bd
00000020: 3ad7 3abd 2f96 a3bd 55b9 89bc 6fdb 97bd
00000030: ef2f 043e 88ec 863c 8c10 513e c43a 2bbd
00000040: 7eb1 8abd fc5e 01be e2f6 c7bc 2180 a43d
00000050: 9b74 2e3e c019 c6bd d890 743a 13b9 dfbd
00000060: 0c81 1c3d ff12 96bd 0ac2 0ebd e102 3dbd
00000070: fdc7 383e b801 033e bcdb 7bbd 7ca6 b9bd
